…
            "Avg/Total": NaN
        },
        "F1-score": {
            "0": 0.6666666666666666,
            "1": 0.6666666666666666,
            "weighted avg/Total": 0.6666666666666666,
            "Avg/Total": NaN
        },
        "Support": {
            "0": 6.0,
            "1": 6.0,
            "weighted avg/Total": NaN,
            "Avg/Total": 12.0
        }
    },
    "Training version": "train00",
    "Optimizer": "SGD (\nParameter Group 0\n    dampening: 0\n    lr: 0.001\n    momentum: 0.9\n    nesterov: False\n    weight_decay: 0.0005\n)",
    "Arquitecture": "SqueezeNet_source0(\n  (conv1): Conv2d(1, 96, kernel_size=(3, 3), stride=(1, 1), padding=(1, 1))\n  (bn1): BatchNorm2d(96, eps=1e-05, momentum=0.1, affine=True, track_running_stats=True)\n  (relu): ReLU(inplace=True)\n  (maxpool1): MaxPool2d(kernel_size=2, stride=2, padding=0, dilation=1, ceil_mode=False)\n  (fire2): fire_(\n    (conv1): Conv2d(96, 16, kernel_size=(1, 1), stride=(1, 1))\n    (bn1): BatchNorm2d(16, eps=1e-05, momentum=0.1, affine=True, track_running_stats=True)\n    (relu1): ReLU(inplace=True)\n    (conv2): Conv2d(16, 64, kernel_size=(1, 1), stride=(1, 1))\n    (bn2): BatchNorm2d(64, eps=1e-05, momentum=0.1, affine=True, track_running_stats=True)\n    (conv3): Conv2d(16, 64, kernel_size=(3, 3), stride=(1, 1), padding=(1, 1))\n    (bn3): BatchNorm2d(64, eps=1e-05, momentum=0.1, affine=True, track_running_stats=True)\n    (relu2): ReLU(inplace=True)\n  )\n  (fire3): fire_(\n    (conv1): Conv2d(128, 16, kernel_size=(1, 1), stride=(1, 1))\n    (bn1): BatchNorm2d(16, eps=1e-05, momentum=0.1, affine=True, track_running_stats=True)\n    (relu1): ReLU(inplace=True)\n    (conv2): Conv2d(16, 64, kernel_size=(1, 1), stride=(1, 1))\n    (bn2): BatchNorm2d(64, eps=1e-05, momentum=0.1, affine=True, track_running_stats=True)\n    (conv3): Conv2d(16, 64, kernel_size=(3, 3), stride=(1, 1), padding=(1, 1))\n    (bn3): BatchNorm2d(64, eps=1e-05, momentum=0.1, affine=True, track_running_stats=True)\n    (relu2): ReLU(inplace=True)\n  )\n  (fire4): fire_(\n    (conv1): Conv2d(128, 32, kernel_size=(1, 1), stride=(1, 1))\n    (bn1): BatchNorm2d(32, eps=1e-05, momentum=0.1, affine=True, track_running_stats=True)\n    (relu1): ReLU(inplace=True)\n    (conv2): Conv2d(32, 128, kernel_size=(1, 1), stride=(1, 1))\n    (bn2): BatchNorm2d(128, eps=1e-05, momentum=0.1, affine=True, track_running_stats=True)\n    (conv3): Conv2d(32, 128, kernel_size=(3, 3), stride=(1, 1), padding=(1, 1))\n    (bn3): BatchNorm2d(128, eps=1e-05, momentum=0.1, affine=True, track_running_stats=True)\n    (relu2): ReLU(inplace=True)\n  )\n  (maxpool2): MaxPool2d(kernel_size=2, stride=2, padding=0, dilation=1, ceil_mode=False)\n  (fire5): fire_(\n    (conv1): Conv2d(256, 32, kernel_size=(1, 1), stride=(1, 1))\n    (bn1): BatchNorm2d(32, eps=1e-05, momentum=0.1, affine=True, track_running_stats=True)\n    (relu1): ReLU(inplace=True)\n    (conv2): Conv2d(32, 128, kernel_size=(1, 1), stride=(1, 1))\n    (bn2): BatchNorm2d(128, eps=1e-05, momentum=0.1, affine=True, track_running_stats=True)\n    (conv3): Conv2d(32, 128, kernel_size=(3, 3), stride=(1, 1), padding=(1, 1))\n    (bn3): BatchNorm2d(128, eps=1e-05, momentum=0.1, affine=True, track_running_stats=True)\n    (relu2): ReLU(inplace=True)\n  )\n  (fire6): fire_(\n    (conv1): Conv2d(256, 48, kernel_size=(1, 1), stride=(1, 1))\n    (bn1): BatchNorm2d(48, eps=1e-05, momentum=0.1, affine=True, track_running_stats=True)\n    (relu1): ReLU(inplace=True)\n    (conv2): Conv2d(48, 192, kernel_size=(1, 1), stride=(1, 1))\n    (bn2): BatchNorm2d(192, eps=1e-05, momentum=0.1, affine=True, track_running_stats=True)\n    (conv3): Conv2d(48, 192, kernel_size=(3, 3), stride=(1, 1), padding=(1, 1))\n    (bn3): BatchNorm2d(192, eps=1e-05, momentum=0.1, affine=True, track_running_stats=True)\n    (relu2): ReLU(inplace=True)\n  )\n  (fire7): fire_(\n    (conv1): Conv2d(384, 48, kernel_size=(1, 1), stride=(1, 1))\n    (bn1): BatchNorm2d(48, eps=1e-05, momentum=0.1, affine=True, track_running_stats=True)\n    (relu1): ReLU(inplace=True)\n    (conv2): Conv2d(48, 192, kernel_size=(1, 1), stride=(1, 1))\n    (bn2): BatchNorm2d(192, eps=1e-05, momentum=0.1, affine=True, track_running_stats=True)\n    (conv3): Conv2d(48, 192, kernel_size=(3, 3), stride=(1, 1), padding=(1, 1))\n    (bn3): BatchNorm2d(192, eps=1e-05, momentum=0.1, affine=True, track_running_stats=True)\n    (relu2): ReLU(inplace=True)\n  )\n  (fire8): fire_(\n    (conv1): Conv2d(384, 64, kernel_size=(1, 1), stride=(1, 1))\n    (bn1): BatchNorm2d(64, eps=1e-05, momentum=0.1, affine=True, track_running_stats=True)\n    (relu1): ReLU(inplace=True)\n    (conv2): Conv2d(64, 256, kernel_size=(1, 1), stride=(1, 1))\n    (bn2): BatchNorm2d(256, eps=1e-05, momentum=0.1, affine=True, track_running_stats=True)\n    (conv3): Conv2d(64, 256, kernel_size=(3, 3), stride=(1, 1), padding=(1, 1))\n    (bn3): BatchNorm2d(256, eps=1e-05, momentum=0.1, affine=True, track_running_stats=True)\n    (relu2): ReLU(inplace=True)\n  )\n  (maxpool3): MaxPool2d(kernel_size=2, stride=2, padding=0, dilation=1, ceil_mode=False)\n  (fire9): fire_(\n    (conv1): Conv2d(512, 64, kernel_size=(1, 1), stride=(1, 1))\n    (bn1): BatchNorm2d(64, eps=1e-05, momentum=0.1, affine=True, track_running_stats=True)\n    (relu1): ReLU(inplace=True)\n    (conv2): Conv2d(64, 256, kernel_size=(1, 1), stride=(1, 1))\n    (bn2): BatchNorm2d(256, eps=1e-05, momentum=0.1, affine=True, track_running_stats=True)\n    (conv3): Conv2d(64, 256, kernel_size=(3, 3), stride=(1, 1), padding=(1, 1))\n    (bn3): BatchNorm2d(256, eps=1e-05, momentum=0.1, affine=True, track_running_stats=True)\n    (relu2): ReLU(inplace=True)\n  )\n  (conv2): Conv2d(512, 10, kernel_size=(1, 1), stride=(1, 1))\n  (avg_pool): AvgPool2d(kernel_size=4, stride=4, padding=0)\n  (softmax): LogSoftmax(dim=1)\n  (linear1): Linear(in_features=160, out_features=2, bias=True)\n)"
}